…
[INFO: train_GCBC.py:   67]: Initializing train dataset
Data loaded!
[INFO: train_GCBC.py:   69]: Initializing val dataset
Data loaded!
[INFO: train_GCBC.py:   72]: There are 33 iterations per epoch
[INFO: train_GCBC.py:   78]: Here is the generator:
[INFO: train_GCBC.py:   79]: TrajectoryGenerator(
  (hist_encoder): Hist_Encoder(
    (transformer_encoder): TransformerEncoder(
      (layers): ModuleList(
        (0): TransformerEncoderLayer(
          (self_attn): MultiheadAttention(
            (out_proj): NonDynamicallyQuantizableLinear(in_features=16, out_features=16, bias=True)
          )
          (linear1): Linear(in_features=16, out_features=32, bias=True)
          (dropout): Dropout(p=0.0, inplace=False)
          (linear2): Linear(in_features=32, out_features=16, bias=True)
          (norm1): LayerNorm((16,), eps=1e-05, elementwise_affine=True)
          (norm2): LayerNorm((16,), eps=1e-05, elementwise_affine=True)
          (dropout1): Dropout(p=0.0, inplace=False)
          (dropout2): Dropout(p=0.0, inplace=False)
        )
      )
    )
    (dropout): Dropout(p=0.0, inplace=False)
    (fc): Linear(in_features=32, out_features=16, bias=True)
    (input_fc): Linear(in_features=2, out_features=16, bias=True)
  )
  (decoder): Decoder_TF(
    (transformer_decoder): TransformerDecoder(
      (layers): ModuleList(
        (0): TransformerDecoderLayer(
          (self_attn): MultiheadAttention(
            (out_proj): NonDynamicallyQuantizableLinear(in_features=18, out_features=18, bias=True)
          )
          (multihead_attn): MultiheadAttention(
            (out_proj): NonDynamicallyQuantizableLinear(in_features=18, out_features=18, bias=True)
          )
          (linear1): Linear(in_features=18, out_features=32, bias=True)
          (dropout): Dropout(p=0.0, inplace=False)
          (linear2): Linear(in_features=32, out_features=18, bias=True)
          (norm1): LayerNorm((18,), eps=0.001, elementwise_affine=True)
          (norm2): LayerNorm((18,), eps=0.001, elementwise_affine=True)
          (norm3): LayerNorm((18,), eps=0.001, elementwise_affine=True)
          (dropout1): Dropout(p=0.0, inplace=False)
          (dropout2): Dropout(p=0.0, inplace=False)
          (dropout3): Dropout(p=0.0, inplace=False)
        )
      )
    )
    (dropout): Dropout(p=0.0, inplace=False)
    (fc): Linear(in_features=36, out_features=18, bias=True)
    (input_fc): Linear(in_features=2, out_features=18, bias=True)
    (output_fc): Linear(in_features=18, out_features=4, bias=True)
  )
)
Learning with ADAM!
[INFO: train_GCBC.py:  228]: Starting epoch 0
Traceback (most recent call last):
  File "/home/martin/.local/lib/python3.8/site-packages/numpy/core/fromnumeric.py", line 57, in _wrapfunc
    return bound(*args, **kwds)
TypeError: clip() received an invalid combination of arguments - got (float, float, out=NoneType), but expected one of:
…
